models/best_down_detector_20251207_191222.pt (torch, 161108 bytes, 6 tensors)

lstm.weight_ih_l0 f4 [384, 4]
-0.17260237 -0.26061404 -0.5025355 0.081454396 0.12048341 0.24676438 0.5137722 0.24443671
0.07605693 -0.08822708 0.24638453 -0.0132109 -0.0832927 -0.28089824 0.1300983 -0.22091287
0.191319 0.1493241 0.06932933 0.08514666 0.078834325 -0.45750508 0.050669294 -0.43598533
-0.30425245 -0.30710992 -0.05866558 -0.35886282 -0.25477964 -0.33700612 0.26752785 -0.035459653
0.24822287 0.14527749 0.24187471 0.05597981 -0.16935232 -0.17897631 -0.12576139 -0.00039623128
0.68723255 0.12913707 0.30949375 0.20685306 0.53106654 0.39758176 0.30205008 0.07888079
0.10473725 0.2937786 0.16370103 -0.15730204 0.21773694 -0.07272431 -0.03001897 0.11332382
0.11183686 0.05911238 0.19061123 0.032924324 -0.08466113 0.248196 0.043139454 0.043536842
0.022718914 0.017692141 0.17952108 -0.16771775 0.1352329 0.35005572 0.46942213 0.20979242
-0.018395448 0.1435348 -0.042151153 -0.43423253 -0.22307877 0.15993942 0.39436904 -0.16427824
-0.07393042 -0.012388872 0.107268356 0.07830081 0.27969113 -0.12736078 0.2809433 0.076364666
0.030382294 0.12885962 0.16969489 0.3665275 0.009788616 -0.6349642 -0.17193118 -0.0808714
-0.019241262 0.1896619 0.22393738 -0.3439902 0.22528136 0.3722276 0.31666026 0.06184728
0.32019615 0.17051233 -0.040953543 0.6233494 -0.009633079 -0.15441632 0.37556055 -0.013040437
0.21850123 -0.40132535 -0.1730819 -0.28453863 0.3857184 0.24801618 0.06934333 0.4409133
0.20409271 0.12826893 0.011306982 0.19356214 0.016834473 -0.18373352 -0.56658894 -0.053315543
-0.079378985 -0.2299544 -0.061452538 -0.18224165 0.24965416 0.037628934 0.27687132 0.16821085
0.12658855 0.27641118 0.40832385 -0.06441466 -0.14131323 0.2857136 0.6900326 -0.13524826
0.39047033 -0.17573471 0.48046297 0.1855385 0.10992832 -0.05433526 -0.21588537 -0.14142066
0.14479518 0.25924215 0.2799496 -0.35324103 0.4846348 0.053149767 0.2250644 0.010899044
-0.26739517 -0.83886796 -0.04956409 -0.45631608 -0.16931482 -0.0873522 -0.35604167 0.14281207
-0.2178435 -0.063856095 0.10578925 -0.32677424 0.23520431 -0.12672287 0.0511762 0.026298711
0.045264404 -0.5201198 0.17216226 0.08888307 -0.4431466 -0.45541978 -0.12201271 -0.3667692
0.20384353 0.007874331 0.45192438 0.36818594 0.23188849 -0.1482976 0.3381526 -0.114360996
-0.30959383 -0.1074936 0.017454537 -0.44508308 0.021487763 0.28812784 0.14301471 -0.18046953
0.048131503 0.31499812 0.21791978 -0.10022324 -0.14815457 0.022915347 0.27695486 0.020654935
-0.19241856 0.20541279 -0.03763673 0.078267634 0.018098049 0.18606362 0.30094752 0.0956473
0.088469855 -0.26487756 -0.04107147 0.11798233 0.43597612 0.79661435 0.1528823 0.3067843
0.11077613 0.11557935 0.36343953 0.4195475 0.30818525 0.25603616 0.42538854 -0.021186953
0.45340717 0.1749311 0.28033596 0.09794403 0.12859459 0.1825074 0.22116154 0.0672986
-0.15715018 0.22863245 0.31898892 0.08889538 0.054837655 0.12788585 0.40467787 -0.16426663
-0.36765152 0.1941564 -0.40738878 0.2536178 0.46276498 0.7164828 0.16441108 0.4266729
00000000: adbe 30be 346f 85be 2ba6 00bf 90d1 a63d
00000010: 02c0 f63d cdaf 7c3e 9386 033f 9e4d 7a3e
00000020: bcc3 9b3d 66b0 b4bd 3a4c 7c3e 8872 58bc
00000030: 5d95 aabd e5d1 8fbe 7d38 053e fc36 62be
00000040: 21e9 433e 6be8 183e 89fc 8d3d 5f61 ae3d
00000050: e473 a13d 1b3e eabe 9b8a 4f3d 7839 dfbe
00000060: fac6 9bbe 833d 9dbe 524b 70bd debc b7be
00000070: 7a72 82be 118c acbe 69f9 883e 243e 11bd
00000080: 232e 7e3e 9fc3 143e 01ae 773e 164b 653d
00000090: b26a 2dbe 9145 37be 98c7 00be 43bd cfb9
000000a0: 79ee 2f3f 823c 043e f775 9e3e 4ad1 533e
000000b0: faf3 073f d68f cb3e 4fa6 9a3e 408c a13d
000000c0: 7c80 d63d 266a 963e 3ea1 273e c913 21be
000000d0: 6ff6 5e3e 7cf0 94bd 58ea f5bc 5216 e83d
000000e0: b90a e53d d31f 723d 972f 433e a8db 063d
000000f0: d162 adbd 1827 7e3e ffb2 303d b053 323d
00000100: 041d ba3c 1cef 903c 60d4 373e 34be 2bbe
00000110: 7e7a 0a3e 813a b33e 1958 f03e d3d3 563e
00000120: 0db2 96bc c9fa 123e b0a6 2cbd ba53 debe
00000130: c36e 64be 29c7 233e bdea c93e 8e38 28be
00000140: d568 97bd b2fa 4abc 83af db3d 2d5c a03d
00000150: ad33 8f3e dd6a 02be cdd7 8f3e 1465 9c3d
00000160: 4ae4 f83c c7f3 033e 7fc4 2d3e 7ea9 bb3e
00000170: 6e60 203c 048d 22bf ba0e 30be e89f a5bd
00000180: da9f 9dbc bb36 423e d74f 653e 7c1f b0be
00000190: 28b0 663e 9e94 be3e 4b21 a23e 9353 7d3d
000001a0: c0f0 a33e c99a 2e3e e7be 27bd d493 1f3f
000001b0: 10d4 1dbc 501f 1ebe 7949 c03e 8fa7 55bc
000001c0: c9be 5f3e 847a cdbe 623c 31be 0caf 91be
000001d0: e27c c53e f4f7 7d3e e003 8e3d 63bf e13e
000001e0: aefd 503e ee58 033e eb40 393c 2735 463e
000001f0: 73e8 893c a424 3cbe f90b 11bf 6661 5abd
00000200: 7391 a2bd 2b79 6bbe a8b5 7bbd 8e9d 3abe
00000210: 57a5 7f3e cc20 1a3d 14c2 8d3e 773f 2c3e
00000220: 6ea0 013e c485 8d3e d30f d13e d5eb 83bd
00000230: 6ab4 10be 0e49 923e faa5 303f 857e 0abe
00000240: baeb c73e cdf3 33be 3eff f53e cefd 3d3e
00000250: 1922 e13d a68e 5ebd 0e11 5dbe 94d0 10be
00000260: 3045 143e 63bb 843e 8e55 8f3e 02dc b4be
00000270: 0d22 f83e 92b3 593d 4877 663e e791 323c
00000280: 05e8 88be 0dc0 56bf b703 4bbd 43a2 e9be
00000290: dd60 2dbe b6e5 b2bd 184b b6be 543d 123e
000002a0: 5e12 5fbe fcc6 82bd 09a8 d83d f44e a7be
000002b0: 66d9 703e a4c3 01be 239e 513d 6570 d73c
000002c0: 2b67 393d 9226 05bf 4e4b 303e 5408 b63d
000002d0: 1ce4 e2be c82c e9be cde1 f9bd 2cc9 bbbe
000002e0: 5cbc 503e 5703 013c a262 e73e de82 bc3e
000002f0: 2d74 6d3e 53db 17be 5622 ad3e 1936 eabd
00000300: 1583 9ebe 9b25 dcbd d1fc 8e3c eee1 e3be
00000310: 1b07 b03c 7e85 933e 7372 123e 01cd 38be
00000320: 8a25 453d 6f47 a13e 5d26 5f3e d841 cdbd
00000330: d5b5 17be f7b8 bb3c 07cd 8d3e 8a34 a93c
00000340: 5f09 45be bb57 523e f928 1abd c84a a03d
00000350: 5c42 943c 7687 3e3e cb15 9a3e bbe2 c33d
00000360: af2f b53d 089e 87be 8f3a 28bd b8a0 f13d
00000370: 4338 df3e ebee 4b3f 2d8d 1c3e d512 9d3e
00000380: 98de e23d deb4 ec3d bf14 ba3e eece d63e
00000390: 75ca 9d3e 2c17 833e 87cc d93e 4390 adbc
000003a0: fc24 e83e 2321 333e 3288 8f3e e196 c83d
000003b0: 4dae 033e 38e3 3a3e 2c78 623e d9d3 893d
000003c0: faeb 20be a01e 6a3e 8452 a33e c80e b63d
000003d0: 739d 603d 82f4 023e f031 cf3e 8335 28be
000003e0: d23c bcbe efd0 463e 4395 d0be 31da 813e
000003f0: 88ef ec3e 6b6b 373f 615b 283e df74 da3e

lstm.weight_hh_l0 f4 [384, 96]
-0.008576647 0.094497 -0.28536835 -0.07544858 -0.52237636 0.0755105 -0.1539676 -0.06666345
0.06211226 -0.025019264 0.06332605 -0.19169688 -0.5320452 0.4620926 0.37671638 -0.23935105
0.025975771 -0.04259732 0.19732158 -0.11812808 -0.07251087 0.2166344 -0.32022983 -0.117235236
0.00096080516 0.23137687 0.13565361 0.12107847 -0.05433397 0.042068202 0.06479647 -0.14977276
-0.11740199 0.18295051 0.029418182 -0.12344491 0.30145338 -0.052860085 -0.2903693 -0.123058036
-0.22729003 -0.06659204 0.26817954 0.122070946 0.41261262 -0.122590706 -0.13404739 -0.02418122
0.09096771 -0.37020645 -0.19340703 -0.074759915 0.3079951 0.108276315 -0.20249297 -0.056395993
-0.0648498 -0.19485837 -0.053852543 0.10660698 0.08260951 -0.28451636 0.13482337 0.04486917
0.0021421919 -0.061617997 -0.36853832 -0.42144445 -0.28475723 0.11094917 0.2717965 -0.04420863
-0.018720292 0.23368366 0.19778751 0.5716602 -0.008935261 0.118982926 0.14180072 -0.023227882
0.34349 0.11183016 -0.0043441886 0.10704739 -0.20571631 0.45086545 0.20242153 0.36638364
-0.13622251 -0.46383774 0.29257545 -0.3021844 0.13783553 0.2770501 0.0092956675 -0.09527829
0.4738808 0.18191516 -0.19924739 -0.04711302 -0.13003051 0.17493221 -0.2187954 -0.1745689
0.20929286 0.2966623 0.18222989 -0.01997975 -0.18764043 0.07532793 0.06978967 0.4700768
0.027217438 0.035084512 0.10029885 -0.030560791 -0.0375009 0.020701718 0.11259359 0.15166268
0.14287105 0.059148494 -0.05873423 0.19870514 0.1618953 0.0876202 -0.30509782 0.09406696
0.0025713758 -0.0968719 -0.023418592 -0.06792549 0.16144417 -0.016078858 -0.13356425 0.12261076
0.20514575 -0.21609989 0.058076285 0.079034455 0.16327244 -0.35577136 -0.023554754 -0.11872055
0.1630343 0.23524936 -0.059328683 -0.30617794 0.0753809 -0.18420973 -0.24409881 -0.2479712
-0.17029464 0.16755539 0.13896257 0.05903379 -0.0065426542 0.06687139 0.101206355 0.06560779
-0.104449145 -0.06900239 -0.04199953 0.29837605 -0.17165662 0.07428559 -0.1809654 -0.20338029
-0.27874824 -0.03401904 -0.024077633 -0.069278166 -0.1169844 -0.14614628 -0.16950123 0.44967765
0.03040292 -0.3579758 -0.36434442 -0.25974172 0.40593094 -0.035072934 0.03704368 -0.17114513
-0.05503213 0.0070564044 -0.097647175 0.10050068 0.059764903 -0.054053277 0.06178244 0.3695454
0.052247655 0.07446399 -0.13998838 -0.06381072 -0.16382904 0.30003145 -0.45966002 -0.09397027
0.34409305 0.15331727 -0.08164925 -0.2151267 -0.31317663 0.22024874 0.07286663 0.22761959
-0.497192 -0.10354487 0.038596224 -0.12958714 0.15418208 0.19842543 0.17406562 -0.32253912
0.045514785 0.25394306 -0.18866423 0.41293928 -0.31388348 -0.16775098 -0.29423803 0.062122982
-0.42751738 -0.050103247 0.18430527 -0.22854203 0.32956278 -0.05475322 -0.2568486 -0.11999512
-0.0064058714 -0.3262012 0.03431032 0.28707543 0.4068072 -0.24380265 0.04940645 0.10836752
0.11127381 -0.22704482 -0.017516078 -0.43701696 0.27855274 0.30652827 -0.38531744 -0.1292346
-0.005194714 0.09929013 0.11381332 0.18147132 0.107485645 -0.20953085 0.30648527 -0.0030946997
00000000: 1185 0cbc a587 c13d cd1b 92be c984 9abd
00000010: 75ba 05bf 40a5 9a3d afa9 1dbe d986 88bd
00000020: 6d69 7e3d 33f5 ccbc 17b1 813d 304c 44be
00000030: 1d34 08bf 6797 ec3e f8e0 c03e 7118 75be
00000040: 24cb d43c 877a 2ebd ab0e 4a3e 23ed f1bd
00000050: 9480 94bd 68d5 5d3e 2af5 a3be 0719 f0bd
00000060: 8bde 7b3a 0fee 6c3e c8e8 0a3e fdf7 f73d
00000070: 4c8d 5ebd b54f 2c3d 03b4 843d 085e 19be
00000080: 7470 f0bd 6157 3b3e 66fe f03c afd0 fcbd
00000090: 1958 9a3e d183 58bd 49ab 94be da05 fcbd
000000a0: b8be 68be 6861 88bd d44e 893e 5500 fa3d
000000b0: f641 d33e d610 fbbd b843 09be b217 c6bc
000000c0: 474d ba3d b38b bdbe 7e0c 46be ba1b 99bd
000000d0: 89b1 9d3e f9bf dd3d 515a 4fbe 7cff 66bd
000000e0: f9cf 84bd f488 47be 7c94 5cbd c354 da3d
000000f0: 2d2f a93d 21ac 91be 230f 0a3e bcc8 373d
00000100: 0464 0c3b 2763 7cbd 0eb1 bcbe 91c7 d7be
00000110: b3cb 91be 5239 e33d e928 8b3e 1c14 35bd
00000120: 4c5b 99bc c54a 6f3e cf88 4a3e 5358 123f
00000130: 3365 12bc 52ad f33d 3534 113e 6648 bebc
00000140: ecdd af3e 3607 e53d b259 8ebb a93b db3d
00000150: 4ca7 52be d6d7 e63e 9747 4f3e a396 bb3e
00000160: ea7d 0bbe 247c edbe 73cc 953e eab7 9abe
00000170: c224 0d3e 83d9 8d3e db4c 183c 4421 c3bd
00000180: 81a0 f23e f847 3a3e 8207 4cbe 95f9 40bd
00000190: b826 05be 6e21 333e e70b 60be 31c2 32be
000001a0: de50 563e 1fe4 973e 799a 3a3e 93ac a3bc
000001b0: d024 40be 8845 9a3d e3ed 8e3d e8ad f03e
000001c0: 1bf7 de3c c7b4 0f3d 7c69 cd3d a05a fabc
000001d0: 8b9a 19bd a696 a93c 7897 e63d 764d 1b3e
000001e0: ca4c 123e b145 723d 4e93 70bd 5c79 4b3e
000001f0: e2c7 253e 3872 b33d c835 9cbe 2ea6 c03d
00000200: 8784 283b c664 c6bd 59d8 bfbc 851c 8bbd
00000210: 9f51 253e cfb7 83bc 11c5 08be 5a1b fb3d
00000220: ba11 523e 4a49 5dbe 66e1 6d3d d1dc a13d
00000230: e430 273e aa27 b6be e6f5 c0bc c223 f3bd
00000240: 77f2 263e 35e5 703e a202 73bd 5bc3 9cbe
00000250: 4d61 9a3d 7aa1 3cbe 0af5 79be 2aec 7dbe
00000260: b861 2ebe a493 2b3e 344c 0e3e 6acd 713d
00000270: c363 d6bb def3 883d 4745 cf3d 615d 863d
00000280: 6fe9 d5bd 2051 8dbd b307 2cbd bfc4 983e
00000290: c1c6 2fbe 0b23 983d fe4e 39be ec42 50be
000002a0: 17b8 8ebe 8d57 0bbd 753e c5bc b6e1 8dbd
000002b0: 8495 efbd 5fa7 15be bb91 2dbe 263c e63e
000002c0: 8b0f f93c 9b48 b7be 5a8b babe defc 84be
000002d0: 2ed6 cf3e a3a8 0fbd 1dbb 173d ab40 2fbe
000002e0: 5f69 61bd 6939 e73b 3efb c7bd 4dd3 cd3d
000002f0: 0bcc 743d f866 5dbd 950f 7d3d 0e35 bd3e
00000300: a301 563d 9480 983d 1d59 0fbe 32af 82bd
00000310: cdc2 27be b99d 993e 8f58 ebbe 7c73 c0bd
00000320: f72c b03e 34ff 1c3e b937 a7bd 2c4a 5cbe
00000330: b058 a0be e388 613e 1a3b 953d 1c15 693e
00000340: f38f febe 550f d4bd 1317 1e3d 7eb2 04be
00000350: e8e1 1d3e 0930 4b3e 423e 323e d923 a5be
00000360: b66d 3a3d d304 823e 3231 41be c76c d33e
00000370: 56b5 a0be eac6 2bbe 5ea6 96be ab74 7e3d
00000380: 8fe3 dabe 1039 4dbd 85ba 3c3e ec06 6abe
00000390: 74bc a83e ea44 60bd a981 83be 00c0 f5bd
000003a0: 58e8 d1bb d803 a7be fa88 0c3d 8dfb 923e
000003b0: 0949 d03e 67a7 79be 6b5e 4a3d caef dd3d
000003c0: 86e3 e33d 707e 68be e17d 8fbc b0c0 dfbe
000003d0: 779e 8e3e 46f1 9c3e 5448 c5be 1356 04be
000003e0: 6b38 aabb a058 cb3d f516 e93d 9ed3 393e
000003f0: 6f21 dc3d 418f 56be a3eb 9c3e 72d0 4abb

lstm.bias_ih_l0 f4 [384]
0.04074476 -0.23173067 -0.036832932 -0.35382178 -0.06425719 -0.33367175 -0.22378187 -0.25346866
-0.10180121 0.14506476 -0.21548584 -0.34686294 -0.027762914 -0.17720161 -0.23214345 -0.07907427
-0.37596893 -0.23615721 -0.3576895 -0.20464598 -0.109414026 0.010661112 -0.27890384 -0.28300935
-0.26029706 -0.1609036 -0.2335303 -0.26754797 -0.044078458 -0.29085395 -0.25800714 -0.040770832
-0.095120266 -0.09016835 -0.20290206 -0.23702665 -0.029232642 0.0062776054 -0.32266942 -0.104767025
0.1298241 -0.109335706 -0.115191266 -0.16267233 -0.118169196 -0.10219748 -0.09647407 -0.28000063
-0.1836502 -0.28693834 -0.29082787 -0.22345187 -0.15992251 -0.026853558 -0.24136434 -0.3127077
-0.22249748 -0.20620373 -0.2694973 -0.03679495 -0.25842765 -0.015753862 -0.16949254 -0.23423535
-0.41692445 -0.24658413 -0.067420505 -0.1970387 -0.035197128 -0.2740735 -0.39607152 -0.19999507
0.012670833 -0.20887852 0.04583683 -0.23820084 -0.10861346 -0.26238304 -0.19693644 -0.20224524
-0.39502248 -0.16400889 -0.11361414 -0.42333114 -0.13359956 0.21963 -0.3944812 0.08406078
-0.056077115 0.10523662 0.14161457 0.040080592 -0.13244067 -0.03592178 -0.2740588 0.0837961
0.0895204 -0.061053224 0.02117435 -0.30513048 0.22217143 0.047964666 -0.0897009 0.05223499
0.16042514 0.055268526 -0.060554594 0.05603098 0.26114383 -0.106508695 0.013782515 0.19773
-0.11713664 0.10219683 -0.34578583 -0.006331592 0.0657112 0.0077854935 -0.07905941 -0.10460025
-0.1641492 -0.13335904 -0.23276655 0.024646798 0.10029408 -0.2042503 0.112894885 0.21969822
-0.15246217 0.10064448 -0.2122651 -0.040789388 0.05393 0.043614127 -0.34911907 -0.045091286
0.15800646 0.0059376243 -0.09646012 -0.08474404 -0.036964655 -0.05855728 -0.069406666 -0.049135514
-0.02397882 -0.2000544 -0.26910377 -0.28139976 -0.0047913184 -0.030506847 0.07596185 -0.02673275
-0.17993271 -0.04695086 -0.1278557 0.09042493 -0.1424105 -0.08298407 0.11943578 -0.13786921
-0.075102404 -0.09645616 0.03477058 -0.1129258 0.0432001 -0.03431081 -0.17831016 -0.059560746
0.07773825 -0.20928188 0.016998466 -0.0542891 0.036807645 -0.16269256 -0.19213524 -0.0041058715
-0.12599549 0.02436383 0.17509189 -0.4968044 -0.13736616 0.0374044 0.11011519 0.059053246
0.34388006 0.031325277 0.30259553 -0.033844136 -0.040646866 0.14294149 -0.21631145 0.04798962
-0.0003008149 -0.058816582 -0.022927873 -0.026344288 0.048632994 -0.027379198 -0.077998735 -0.10061075
-0.03905594 0.02778666 -0.14445785 -0.077499054 0.08925532 -0.034524098 -0.045514863 0.07455022
0.06493508 0.10392453 -0.013133804 -0.08898344 0.022560341 0.15609853 0.118327364 -0.04415803
-0.0119641945 0.022031054 -0.0023697256 0.12031025 -0.053759392 -0.07414749 -0.06487268 0.06031527
-0.062960766 0.017176079 0.083997846 -0.036609933 0.021995855 -0.0029410499 -0.06928833 0.054625213
-0.0141888745 -0.04240177 0.14257878 -0.017481677 -0.068936944 -0.05420644 -0.033112325 -0.021783749
-0.008387878 0.007887226 0.036627237 0.074143 -0.036730435 0.03895434 0.0024133385 0.07671387
-0.12931894 0.10630874 -0.06455808 0.0566934 0.05277115 -0.09191796 0.020473938 -0.07181086
00000000: fae3 263d ce4a 6dbe 21de 16bd 2128 b5be
00000010: 4699 83bd 06d7 aabe 1327 65be a5c6 81be
00000020: 277d d0bd db8b 143e 52a8 5cbe 0598 b1be
00000030: 0d6f e3bc 5774 35be 03b7 6dbe b1f1 a1bd
00000040: 007f c0be 32d3 71be 1423 b7be b78e 51be
00000050: 7614 e0bd f2ab 2e3c 7ccc 8ebe 9ae6 90be
00000060: a845 85be eac3 24be 9122 6fbe 0cfc 88be
00000070: 9d8b 34bd cfea 94be 8319 84be 51ff 26bd
00000080: 6ace c2bd 2faa b8bd 8fc5 4fbe 1db7 72be
00000090: 4b79 efbc 5fb4 cd3b ed34 a5be 1890 d6bd
000000a0: 9cf0 043e 66eb dfbd 66e9 ebbd 9393 26be
000000b0: b102 f2bd ea4c d1bd 3294 c5bd 3e5c 8fbe
000000c0: cc0e 3cbe 95e9 92be 64e7 94be 91d0 64be
000000d0: bac2 23be fefb dbbc 3728 77be 391b a0be
000000e0: 61d6 63be 1227 53be 8dfb 89be 4db6 16bd
000000f0: a150 84be 3e0e 81bc 748f 2dbe 64db 6fbe
00000100: 1f77 d5be 8d80 7cbe c313 8abd 83c4 49be
00000110: dd2a 10bd 5d53 8cbe e3c9 cabe 82cb 4cbe
00000120: 5399 4f3c 40e4 55be 66bf 3b3d ecea 73be
00000130: bc70 debd 1257 86be b5a9 49be 6019 4fbe
00000140: 6340 cabe f2f1 27be 88ae e8bd dcbe d8be
00000150: 53ce 08be b0e6 603e 71f9 c9be 0f28 ac3d
00000160: 1eb1 65bd 4c86 d73d 6903 113e 8c2b 243d
00000170: 879e 07be b722 13bd 6f51 8cbe 4a9d ab3d
00000180: 7956 b73d f212 7abd d575 ad3c 103a 9cbe
00000190: e880 633e 9976 443d 1bb5 b7bd 5bf4 553d
000001a0: 7d46 243e 4061 623d 1808 78bd be80 653d
000001b0: a5b4 853e 3b21 dabd 0fd0 613c bc79 4a3e
000001c0: 56e5 efbd 924c d13d d70a b1be 3e79 cfbb
000001d0: 9893 863d 741d ff3b e6e9 a1bd a838 d6bd
000001e0: ba16 28be 468f 08be 5b5a 6ebe 15e8 c93c
000001f0: fc66 cd3d fe26 51be 6f35 e73d 92f8 603e
00000200: 0b1f 1cbe b11e ce3d 065c 59be c612 27bd
00000210: b4e5 5c3d baa4 323d bcbf b2be a4b1 38bd
00000220: 72cc 213e 6790 c23b e28c c5bd 498e adbd
00000230: 4068 17bd c2d9 6fbd 1525 8ebd 5242 49bd
00000240: 3b6f c4bc 10db 4cbe f8c7 89be a113 90be
00000250: 7e00 9dbb 7fe9 f9bc e391 9b3d a4fe dabc
00000260: 4840 38be 8c4f 40bd 9bec 02be b530 b93d
00000270: 0fd4 11be 8df3 a9bd bf9a f43d 962d 0dbe
00000280: 4acf 99bd cf8a c5bd 986b 0e3d a445 e7bd
00000290: 97f2 303d 7e89 0cbd f096 36be f8f5 73bd
000002a0: 3b35 9f3d fd4d 56be 5e40 8b3c 3f5e 5ebd
000002b0: 9dc3 163d e198 26be 1abf 44be 8c8a 86bb
000002c0: f604 01be a896 c73c 4a4b 333e 255d febe
000002d0: b7a9 0cbe 5b35 193d 1384 e13d d1e1 713d
000002e0: 0c11 b03e ef4e 003d cded 9a3e 26a0 0abd
000002f0: 547d 26bd 415f 123e c080 5dbe c490 443d
00000300: b1b6 9db9 a8e9 70bd 3cd3 bbbc facf d7bc
00000310: 6433 473d 574a e0bc cdbd 9fbd 020d cebd
00000320: 1ff9 1fbd d9a0 e33c c2ec 13be d3b7 9ebd
00000330: 7ecb b63d 2469 0dbd cb6d 3abd c9ad 983d
00000340: affc 843d 62d6 d43d 2b2f 57bc f33c b6bd
00000350: 77d0 b83c 4bd8 1f3e 9e55 f23d 0ddf 34bd
00000360: 7805 44bc 787a b43c 664d 1bbb 3865 f63d
00000370: cf32 5cbd a4da 97bd f8db 84bd 250d 773d
00000380: 93f1 80bd d9b4 8c3c 1007 ac3d 4cf4 15bd
00000390: a730 b43c a1be 40bb 0ae7 8dbd b0be 5f3d
000003a0: 7478 68bc 7aad 2dbd 2c00 123e bc35 8fbc
000003b0: d02e 8dbd 9207 5ebd caa0 07bd d573 b2bc
000003c0: 4f6d 09bc 6c39 013c 7106 163d 49d8 973d
000003d0: a772 16bd 968e 1f3d 1a29 1e3b 291c 9d3d
000003e0: 2f6c 04be 66b8 d93d 0737 84bd 5737 683d
000003f0: 9026 583d 7c3f bcbd f6b8 a73c 9211 93bd

lstm.bias_hh_l0 f4 [384]
0.02313026 -0.13872261 0.016824277 -0.4544592 -0.0048373803 -0.25783578 -0.21521264 -0.29174483
-0.17514986 0.020809755 -0.062212337 -0.18944983 -0.09254367 -0.13164465 -0.15903711 -0.1919493
-0.4127324 -0.31482336 -0.3252607 -0.20722584 -0.042522933 -0.13986431 -0.26332688 -0.1092014
-0.27552631 -0.21469674 -0.19647786 -0.17624833 0.05746765 -0.23590273 -0.29387733 0.09600762
-0.2433215 0.09654738 -0.10063623 -0.29937863 0.008111399 0.041665122 -0.29488835 -0.088126846
0.26333898 -0.1708275 -0.18663323 -0.304102 -0.12998918 0.00063376134 -0.16352525 -0.13135256
-0.10453327 -0.22197826 -0.3043616 -0.23119552 -0.22932549 -0.17337659 -0.25741583 -0.36508313
-0.1878834 -0.33164936 -0.22653379 -0.19557871 -0.24827623 0.061143607 -0.011698024 -0.16973633
-0.4285906 -0.36882222 -0.0063853776 -0.14409924 -0.028733041 -0.4230925 -0.43677846 -0.3058717
-0.102908045 -0.3598821 0.17180832 -0.35920253 -0.17369413 -0.22404987 -0.23051931 -0.22980271
-0.29264045 -0.123424664 -0.11586534 -0.49959713 -0.06478721 0.14465989 -0.40428108 0.10100945
-0.0024503244 0.014487376 0.2530813 -0.028379621 -0.13844363 -0.06667473 -0.099370465 0.0528714
0.07821616 -0.112659894 -0.096112944 -0.3279751 0.21281335 -0.0877983 -0.12206745 0.08752066
0.04639262 0.090956934 0.04323399 0.02414619 0.25005057 -0.051367015 -0.030335668 0.24703716
-0.21077493 0.17186914 -0.28232646 -0.119428985 0.011381235 0.033047177 -0.06299533 0.012547691
-0.23813404 -0.06642721 -0.27374202 -0.025676487 0.09908058 -0.22710955 0.015743239 0.3289428
-0.15940721 0.22298148 -0.14233157 0.09253911 0.072694704 0.18936543 -0.27398318 -0.046269447
0.1353264 0.027048592 -0.045196954 -0.04268327 -0.010278499 0.07438745 0.012795035 -0.16949914
-0.10424562 -0.303653 -0.2945235 -0.2578816 0.04672711 -0.1042896 -0.0005605647 -0.03531965
-0.13422936 -0.09811449 -0.23875701 0.032142088 -0.19498448 0.02444661 0.15021156 0.02077526
0.035129376 -0.03904994 -0.055199917 -0.2486666 -0.12577863 -0.06594909 -0.22664864 -0.12084833
8.213958e-05 -0.07020478 -0.054507904 0.08199016 -0.008939616 -0.0760218 -0.18018408 -0.078578115
0.00063498033 0.062684745 0.053346355 -0.3748654 -0.18817548 -0.067406975 0.09527584 0.11039563
0.5129234 0.047664076 0.33068174 -0.12120036 -0.10545575 0.1465048 -0.28906092 0.08672251
0.07191405 0.0015714903 -0.12903768 -0.024889268 0.09020413 -0.07563527 0.047350504 -0.09858332
0.07253145 0.013592252 -0.14072487 -0.15682687 -0.009217456 0.014105243 -0.016632909 0.012596845
-0.062307715 -0.023570407 -0.018249953 -0.018245408 0.06270749 -0.03587829 0.069094226 -0.11215
-0.11215238 -0.028771684 0.019956782 -0.06585463 0.100215845 0.06892779 -0.060849965 -0.07252057
-0.11818097 -0.09642938 -0.04689337 -0.04985833 0.03895869 -0.01173358 0.07405052 0.099542014
-0.07185739 -0.009253605 0.022872852 -0.031187205 0.06441279 -0.03663327 0.047468655 0.034107532
0.040154748 -0.04681028 0.013529256 0.0033230018 0.03046152 0.05076125 -0.0064781928 0.022719298
0.022890178 -0.07314441 0.102328 0.02482453 -0.015842987 -0.01970214 0.17962047 -0.03787939
00000000: ac7b bd3c 4d0d 0ebe 11d3 893c e0ae e8be
00000010: e382 9ebb 0d03 84be b460 5cbe 945f 95be
00000020: 7c5a 33be 3879 aa3c 5dd2 7ebd 23ff 41be
00000030: 8987 bdbd dbcd 06be a0da 22be 5b8e 44be
00000040: a951 d3be 8730 a1be 9288 a6be 0333 54be
00000050: 872c 2ebd 9738 0fbe c8d2 86be fca4 dfbd
00000060: c911 8dbe 76d9 5bbe 7e31 49be 717a 34be
00000070: 3363 6b3d 7c90 71be 1777 96be a59f c43d
00000080: 4529 79be a2ba c53d 5e1a cebd 2848 99be
00000090: ace5 043c 0ca9 2a3d 9bfb 96be d97b b4bd
000000a0: 5ed4 863e 67ed 2ebe c81c 3fbe 42b3 9bbe
000000b0: e21b 05be 0123 263a 2a73 27be 4981 06be
000000c0: 8a15 d6bd 454e 63be 49d5 9bbe 85be 6cbe
000000d0: 4dd4 6abe a289 31be 02cc 83be 2dec babe
000000e0: 8264 40be f2cd a9be 79f8 67be c945 48be
000000f0: 203c 7ebe b871 7a3d 12a9 3fbc 5ccf 2dbe
00000100: 3a70 dbbe 44d6 bcbe 6e3c d1bb c08e 13be
00000110: 8e61 ebbc 959f d8be 6da1 dfbe 379b 9cbe
00000120: 74c1 d2bd 7742 b8be 85ee 2f3e 65e9 b7be
00000130: e0dc 31be 546d 65be 410d 6cbe 6751 6bbe
00000140: f8d4 95be 12c6 fcbd cf4a edbd 32cb ffbe
00000150: 28af 84bd b921 143e eefd cebe 0bde ce3d
00000160: 9f95 20bb 765c 6d3c df93 813e 617c e8bc
00000170: 2bc4 0dbe c38c 88bd be82 cbbd ae8f 583d
00000180: cb2f a03d 3bba e6bd ddd6 c4bd 5aec a7be
00000190: beeb 593e 98cf b3bd 80fe f9bd 083e b33d
000001a0: 3006 3e3d a147 ba3d 2016 313d 3bce c53c
000001b0: a106 803e 3866 52bd 8282 f8bc 4ff7 7c3e
000001c0: 62d5 57be 77fe 2f3e 188d 90be 2f97 f4bd
000001d0: 5c78 3a3c 7a5c 073d b203 81bd d594 4d3c
000001e0: 69d9 73be fd0a 88bd ea27 8cbe 7f57 d2bc
000001f0: c2ea ca3d 688f 68be f7f7 803c 316b a83e
00000200: a53b 23be 4255 643e 5ebf 11be 2585 bd3d
00000210: f6e0 943d 03e9 413e 8647 8cbe 0885 3dbd
00000220: 0193 0a3e 0295 dd3c 7120 39bd a7d4 2ebd
00000230: 2667 28bc 7358 983d 44a2 513c 2f91 2dbe
00000240: ba7e d5bd 6878 9bbe c9cb 96be 0f09 84be
00000250: ed64 3f3d c995 d5bd dcf2 12ba 56ab 10bd
00000260: 6c73 09be 40f0 c8bd b87c 74be 6ca7 033d
00000270: 03aa 47be 4244 c83c 0fd1 193e e130 aa3c
00000280: d2e3 0f3d d4f2 1fbd 4f19 62bd 75a2 7ebe
00000290: 1dcc 00be 5110 87bd 9516 68be 547f f7bd
000002a0: 5a42 ac38 86c7 8fbd ae43 5fbd 75ea a73d
000002b0: 7877 12bc 51b1 9bbd 2d82 38be 90ed a0bd
000002c0: cf74 263a dc60 803d b581 5a3d 5cee bfbe
000002d0: 13b1 40be ab0c 8abd fb1f c33d 1b17 e23d
000002e0: f34e 033f 683b 433d 1e4f a93e e537 f8bd
000002f0: 2ff9 d7bd 5b05 163e cbff 93be 929b b13d
00000300: ac47 933d 77fa cd3a 7422 04be 94e4 cbbc
00000310: f1bc b83d aae6 9abd 9af2 413d 0de6 c9bd
00000320: 5e8b 943d 09b2 5e3c 2e1a 10be 3997 20be
00000330: d004 17bc ad19 673c bd41 88bc ff62 4e3c
00000340: 6036 7fbd ba16 c1bc ed80 95bc 6577 95bc
00000350: c96c 803d 1df5 12bd 4681 8d3d e6ae e5bd
00000360: 26b0 e5bd 98b2 ebbc 687c a33c cbde 86bd
00000370: f73d cd3d 032a 8d3d d03d 79bd aa85 94bd
00000380: dd08 f2bd c47c c5bd 4313 40bd 4038 4cbd
00000390: 2693 1f3d 343e 40bc cda7 973d afdc cb3d
000003a0: f829 93bd 6f9c 17bc d95f bb3c 4f7c ffbc
000003b0: daea 833d c50c 16bd 7e6e 423d 57b4 0b3d
000003c0: 4e79 243d 23bc 3fbd d0a9 5d3c b8c6 593b
000003d0: 708a f93c 07eb 4f3d 0547 d4bb d21d ba3c
000003e0: 2f84 bb3c bdcc 95bd 5891 d13d d05c cb3c
000003f0: 27c9 81bc 6266 a1bc 6eee 373e 6b27 1bbd

fc.weight f4 [2, 96]
-0.024659898 0.15704946 -0.24043061 -0.085741945 -0.06354801 -0.045716893 -0.033159766 -0.101056494
0.17541361 0.049745455 0.13606077 0.060060263 -0.15142855 -0.0032485751 -0.042858478 -0.01918637
-0.098625645 -0.01020828 0.22147238 -0.19515076 0.011392033 0.16574788 0.07933721 -0.061908342
-0.17470782 0.18064319 0.45677477 0.16545175 0.10055102 0.27076182 -0.26743445 0.012873448
-0.0025524287 0.0217934 0.42697677 -0.1473186 0.31921926 0.23681468 0.27978304 -0.22147438
-0.43834704 0.083594404 0.04401316 0.17962906 0.24661386 0.01678994 0.058238927 0.58410734
-0.08530022 -0.17742999 0.2048339 -0.052328393 0.026435934 0.08713988 -0.18190615 0.07167671
-0.38761017 0.40089902 0.27155253 0.091328196 0.40746164 -0.26477665 0.12460248 -0.36558047
0.20236535 0.16014266 -0.37014726 -0.48031008 -0.13861392 -0.03774174 -0.23652582 -0.20438258
0.10396414 -0.15122615 0.51573026 -0.25173184 -0.32568645 0.14273345 0.22031654 -0.10832628
0.07776254 0.27608868 0.033031855 -0.11563988 -0.2449683 0.35391593 0.10501195 0.2878345
-0.03520461 -0.23402385 0.10080306 -0.20771343 -0.28892523 0.15763572 0.13309957 -0.22909504
0.08328079 -0.2113852 0.35425824 0.121982746 0.060721148 0.13966478 0.039530393 -0.035364542
-0.11963126 -0.036819566 -0.21437499 -0.028501874 0.10106237 -0.0338388 0.08522542 0.026560746
0.12596591 -0.079576775 -0.12969121 0.307905 0.02165849 -0.042653248 -0.023872461 0.039727375
0.28951895 -0.119555876 -0.41325745 -0.2607045 0.05437515 -0.2077889 0.12507793 0.090131514
0.12186232 0.11849619 -0.43655476 0.111721046 -0.41159132 -0.10448925 -0.32601413 0.27973455
0.33597493 0.02669405 -0.024920668 -0.068959124 -0.2117903 0.10561309 0.08640042 -0.4389499
-0.0122891 0.2148345 -0.16648048 0.13105905 -0.15093748 -0.21329084 0.14907771 -0.18963508
0.3407943 -0.40301043 -0.30495837 -0.2281591 -0.32129171 0.2627214 -0.104736865 0.32738483
-0.043479193 -0.12600338 0.4156845 0.51880026 0.12081976 -0.056429695 0.2043978 0.16409485
-0.08219208 0.078619115 -0.500887 0.1912775 0.22991724 -0.1798603 -0.2026797 0.04891443
0.01244459 -0.281771 0.09217904 0.1617506 0.14580703 -0.34017548 -0.040648118 -0.20283885
-0.0053186896 0.24945135 -0.23025914 0.24925715 0.34142208 -0.14431 -0.253761 0.24319646
00000000: 8e03 cabc 93d1 203e 7133 76be 7999 afbd
00000010: 7625 82bd a341 3bbd 89d2 07bd b5f6 cebd
00000020: a09f 333e e4c1 4b3d 8453 0b3e c001 763d
00000030: 1610 1bbe 0ce6 54bb 5f8c 2fbd bc2c 9dbc
00000040: 3efc c9bd a140 27bc a8c9 623e 9ad5 47be
00000050: a6a5 3a3c d0b9 293e 8c7b a23d 9a93 7dbd
00000060: 9be6 32be 87fa 383e 62de e93e 2f6c 293e
00000070: b1ed cd3d 4ba1 8a3e 2bed 88be 28eb 523c
00000080: a646 27bb 1388 b23c b39c da3e b0da 16be
00000090: b570 a33e 8c7f 723e b93f 8f3e 2eca 62be
000000a0: 066f e0be 8b33 ab3d 2547 343d aef0 373e
000000b0: 5888 7c3e 0e8b 893c f18b 6e3d 0f88 153f
000000c0: e2b1 aebd 35b0 35be fabf 513e 4c56 56bd
000000d0: 2c90 d83c 6576 b23d 9b45 3abe 3dcb 923d
000000e0: d774 c6be a342 cd3e ef08 8b3e 470a bb3d
000000f0: d09e d03e ce90 87be 962f ff3d 5d2d bbbe
00000100: dd38 4f3e 70fc 233e f183 bdbe 34eb f5be
00000110: cff0 0dbe 1597 1abd d333 72be ab49 51be
00000120: 27eb d43d 07db 1abe e606 043f ffe2 80be
00000130: 60c0 a6be b828 123e a99a 613e 2bda ddbd
00000140: f741 9f3d 7f5b 8d3e 694c 073d 9ad4 ecbd
00000150: f8d8 7abe 7834 b53e 8110 d73d 0b5f 933e
00000160: b632 10bd f3a3 6fbe d671 ce3d d4b2 54be
00000170: 02ee 93be 426b 213e 414b 083e e497 6abe
00000180: 1e8f aa3d 5d75 58be 5661 b53e 17d2 f93d
00000190: bdb6 783d 4904 0f3e 9fea 213d 69da 10bd
000001a0: 3c01 f5bd 1dd0 16bd 1e85 5bbe c37c e9bc
000001b0: caf9 ce3d 8e9a 0abd aa8a ae3d ec95 d93c
000001c0: 35fd 003e 26f9 a2bd c6cd 04be b9a5 9d3e
000001d0: 256d b13c 2cb5 2ebd 2e90 c3bc 2cb9 223d
000001e0: d43b 943e b6d9 f4bd 7b96 d3be 0f7b 85be
000001f0: 7ab8 5e3d 9dc6 54be 6e14 003e df96 b83d
00000200: f492 f93d 21ae f23d 1b84 dfbe 01ce e43d
00000210: 19bc d2be 76fe d5bd 53eb a6be 5e39 8f3e
00000220: e804 ac3e 7bad da3c 6e26 ccbc 713a 8dbd
00000230: 8edf 58be ad4b d83d b4f2 b03d 0bbe e0be
00000240: 3958 49bc 93fd 5b3e dc79 2abe 5834 063e
00000250: 5b8f 1abe ea68 5abe d4a7 183e b32f 42be
00000260: 977c ae3e 6257 cebe 8123 9cbe 8aa2 69be
00000270: 5980 a4be 6b83 863e 4880 d6bd fc9e a73e
00000280: 3d17 32bd 0807 01be 99d4 d43e 18d0 043f
00000290: 5a70 f73d d322 67bd a84d 513e 7b08 283e
000002a0: 5254 a8bd 0f03 a13d 213a 00bf 40de 433e
000002b0: 6d6f 6b3e 4c2d 38be 448b 4fbe 7f5a 483d
000002c0: 65e4 4b3c 4a44 90be 5dc8 bc3d f3a1 253e
000002d0: 704e 153e 7b2b aebe a47e 26bd fdb4 4fbe
000002e0: 6748 aebb 2d70 7f3e 0dc9 6bbe 443d 7f3e
000002f0: e0ce ae3e 00c6 13be f6ec 81be 7e08 793e

fc.bias f4 [2]
0.25395542 -0.21499431
00000000: 7206 823e 7827 5cbe
